static/js_model.onnx (onnx, 41499 bytes, 5 tensors)

fc1.weight f4 [2, 64]
00000000: 84f9 d43e 7870 0a3f 6718 81bd d67c b9bf
00000010: c79d 05bf 7fcf 08be 94cb ab3d 6c32 5cbf
00000020: 72f5 3f3e 76da cbbe 5dfc 2cbf 9f07 c03e
00000030: 782b 653f c4cd e4bf e269 96bf 7bf9 9c3d
00000040: 871d 1b3f 9afc 07bf d96a 8d3e 54e2 9fbd
00000050: 50fa a4be 3e8f 39bf 20f1 023f 33fd 143f
00000060: f29e 71bf bc21 a03d 1f12 febe ab69 5e3e
00000070: 4c47 d53e e47e 58bf e58f 563f 9e1d 2f3f
00000080: 3371 7ebf 0d69 f9be 7299 51bf db67 62be
00000090: eaaf 923f 80fe f23e 589b 3fbf 8e4d c1be
000000a0: 9c27 43bf 7b35 95be 4543 88be dd6e 8dbf
000000b0: f78a a7bf 0551 8a3f 49d3 07bf 382b be3e
000000c0: d88e adbe f9f3 54bf b4d8 bebd d64e f13f
000000d0: 480d 0dbf 7491 d7bf a7a5 9c3e d2e1 5a3f
000000e0: 3184 16be 9fa5 023e 58d5 f23d 518f 403f
000000f0: 6e55 bfbf 96c4 0bbf 9f3f 28bf bb70 853e
00000100: 2e18 b4be eabb 30bf f16d 94be 60fb 953d
00000110: 1e34 093e 2359 073e b8c9 59be 2d3e 433f
00000120: 26b8 1e3f 648b 433e edde 063e 30e4 603d
00000130: 0f13 b1be 7e27 2c3f feee 1cbe 0799 1e3f
00000140: d6e4 393e fc8b 1b3e ef4a 09be 35e6 2cbb
00000150: f070 98bd 025e 7a3e abac ff3b 70a9 a43e
00000160: 7feb d33e b5a0 d1be 4c11 9e3e 2252 5dbe
00000170: 207a 1dbf 606b 843e 561b 39bf be5c 30bf
00000180: fce8 353d 4733 c4bd 69b9 4c3f 9c32 813e
00000190: 9c01 b2be 10e7 7dbf 040a f0bc c328 2f3e
000001a0: 5a47 f83d 013b 0ebf 225a a7bf a840 b13e
000001b0: ac5d ef3e 33d2 b33b cc10 4c3d 2b12 5b3e
000001c0: 7648 62be 02ab 323f 7f79 013d d735 a4bd
000001d0: 6109 b93e 5099 583f 46b7 19bd 72e0 f6be
000001e0: be0b bd3e 25eb 13be 4f4a a33e ee8c e2be
000001f0: eaa4 fbbc 54c0 653f ee80 36be 0fb9 fbbe
0.41596615 0.54077864 -0.063034825 -1.4491222 -0.52193874 -0.13360403 0.08388439 -0.8601444
0.18745974 -0.3981511 -0.67572576 0.37505814 0.89519453 -1.7875295 -1.1751063 0.07664772
0.6059193 -0.53119814 0.2762058 -0.078068405 -0.32222223 -0.72484195 0.5114918 0.5819885
-0.94383156 0.07818934 -0.496232 0.21719997 0.41655958 -0.8456862 0.83813316 0.6840457
-0.9939148 -0.4871296 -0.81874764 -0.2210993 1.1459935 0.47459793 -0.7484641 -0.37754482
-0.76232314 -0.29142365 -0.26613823 -1.1049458 -1.3089284 1.0805975 -0.5305677 0.37142348
-0.33898044 -0.8318477 -0.093186766 1.8852184 -0.5509839 -1.6841264 0.30595133 0.85500824
-0.14698865 0.12758492 0.11857098 0.75218683 -1.4947946 -0.5459684 -0.6572208 0.2606257
-0.35174698 -0.69036734 -0.2899013 0.073233366 0.13398787 0.13217597 -0.21268356 0.7626675
0.6199974 0.19096142 0.13170977 0.054905117 -0.34584853 0.6724776 -0.15325543 0.6195225
0.181537 0.15190119 -0.13407491 -0.0026382331 -0.07443416 0.24449924 0.007802566 0.3216052
0.41390607 -0.40942922 0.3087257 -0.21613362 -0.6151447 0.2586317 -0.72307336 -0.68891513
0.044411644 -0.09580093 0.79970413 0.25233924 -0.34766853 -0.991807 -0.02930165 0.17105393
0.12122984 -0.5555878 -1.3074381 0.3461964 0.46751153 0.005487704 0.049820706 0.2139365
-0.22097954 0.6979219 0.03161001 -0.08018082 0.36139968 0.84608936 -0.0375283 -0.48218113
0.3692302 -0.1444517 0.3189263 -0.44248146 -0.030718286 0.89746594 -0.1782262 -0.49164626

fc1.bias f4 [2]
00000000: 777e 093f 870c a73e
0.53708595 0.32626745

onnx::LSTM_207 f4 [2, 256]
00000000: ae1d 943e 8cea 163d 7d96 9e3e 125d a9bd
00000010: 89f0 39be 029b 3fbe 1161 40be 502f bebd
00000020: c36d 96be d118 1a3f 6008 1c3e 4685 b43d
00000030: 89d9 fa3d 5499 59bd 6548 03be 3052 41be
00000040: c96b 22be 51dc 60be 5fec dd3d bad7 093e
00000050: 0dc9 63be 3a82 053e 82ad 41bd 1c09 69bd
00000060: 682b 7f3d 5dbe cdbe 8b43 aebe 68db 493e
00000070: 9b9e 593d 9c00 fcbd ca77 703d 7cb4 5e3d
00000080: cf37 913e 4609 c03d 59a5 083c f326 853d
00000090: c73c 78bd 08ad 113e cfa6 493b b60d af3e
000000a0: 5b8d c33d 0d3f 493e a58c f33c db92 603e
000000b0: 6898 0a3f 3cec c03e 0849 d13e 6bd4 473e
000000c0: c4b7 4abd b968 5c3d 33d1 143e c473 603e
000000d0: 6fb3 00bc 91d1 fbbd cd18 723e 2662 cd3e
000000e0: 8491 7d3c 52ae 883d 5c68 69ba d81a 3d3e
000000f0: d584 883c b0b1 56bd c4b7 3dbd 6def e83d
00000100: 0a3d a5be dda1 a3bd d8ba ad3d 7a6f 7dbd
00000110: 66ee 08bf bd8a 1c3f 7987 6f3d 023d 053f
00000120: e67d 013e 3338 30bd 0972 533e 027e 87be
00000130: a767 85be b77e 8e3e ee23 ecbe 2804 e8bd
00000140: ee3d de3e 4e10 b43e 71b2 473c 1a54 31be
00000150: cd96 fc3c 666d 11bf 911b 753e afee 723e
00000160: 7001 1f3e d0cc c03d 9566 533e a664 343c
00000170: 61d9 5e3e e097 87be e5f0 a83e 2d2b 92be
00000180: 343a e23d 8def 453e 8802 aebc d6a8 423e
00000190: 3119 f2bd e117 32be 7a6f 373e 364b aa3d
000001a0: 46c3 92ba 76b0 cf3d 9654 e33d 2dcd bb3e
000001b0: ea47 b7be 4547 8a3d f602 b2be d273 afbd
000001c0: 6e65 19be 6205 0c3d f840 32bd 36cf af3d
000001d0: 9be3 0fbe 8f84 abbc cad8 3b3e 87b8 db3d
000001e0: 6057 203e 923b 663e 5695 80be a761 203e
000001f0: 9380 4fbe 9682 ff3d f22b 14bc 23ec b63e
00000200: 3348 8d3e 2af9 ecbd 9616 0c3e c013 7dbe
00000210: 408f 8fbe 591b 353c bd69 5fbe 8d4d afbc
00000220: 8537 82be 5efa c93e 3ee1 873e 56e7 d7bd
00000230: 80db 863e 4ca0 85be 7f0c 20be 2dc1 c1be
00000240: 3904 08be 00bb 63be ac97 1bbc 7277 d03d
00000250: 667a 003d 05bb 9bbc 38fe 023c c4da 0e3e
00000260: c6a5 7c3e 1b4b cdbe 1600 0cbf 2829 45bd
00000270: 025d 623c f391 69be 6f66 c0bb 8e45 053e
00000280: aad3 503e c488 d53d 1bb9 393c c1fb 9fbd
00000290: 3e71 73be 721f 233e 9547 603d c87a 723e
000002a0: 369c 96bc 259b 8f3e ee5e ad3d d2d2 f23e
000002b0: 7aaa f03e bcc1 6a3d 87b3 e23e e573 903e
000002c0: e8d5 383e ebc7 a53c ddc5 5c3e 9e0d 01bd
000002d0: e936 6d3e 197a 023e 7fab 763e 284f 203f
000002e0: 62c4 203e aa8b a93e 46a6 9b3d 7f40 8f3e
000002f0: 13ba 4a3e f4e4 b9bc d375 0b3e fc21 443d
00000300: ecb7 c1be 1f4d b3bd 7073 8bbd bf40 563e
00000310: adf1 e3be 9807 163f cbe5 783e 22bc ab3e
00000320: 161e 483e b793 393e 32d8 a33e 7483 80be
00000330: 6c87 c1be 2e56 583e 1d29 44be 527a 9ebd
00000340: 4dbb 1a3f c871 113f 0d9c 5cbe 1103 7dbe
00000350: ab60 3abd be4b 1fbf 120f a53e 8b5c ad3e
00000360: e119 b43b 187d 833e 7039 db3d 61d8 9dbb
00000370: a85a a33d db30 c8be ce34 833e 9393 66bd
00000380: 9ff6 443e 3b42 84bb 0125 973d 765a 6e3e
00000390: fa35 4abe 26ba 8cbe 7612 bcbd 5e49 023e
000003a0: add2 e0bd 3f28 bebd 246f 603e 8115 7c3e
000003b0: 3f6d 2fbe 88eb d9bb c765 a8be e457 813c
000003c0: 03f3 9d3d 2dc0 afba 48e9 bbbd 7013 aa3b
000003d0: df92 fcbd bcd3 b13c b6b7 513e 0d23 76bd
000003e0: d356 11bd 6982 54bd 3dbc ecbd d9df 213e
000003f0: df80 e03b 7d83 733e 5a7c 7dbe 1f1f 793e
0.28928894 0.036844775 0.30974188 -0.08269705 -0.18158163 -0.18711475 -0.18787028 -0.09286368
-0.29380617 0.60194117 0.1523757 0.088144824 0.12248523 -0.05312474 -0.12820585 -0.18879008
-0.1586143 -0.21959044 0.108361 0.134612 -0.22244664 0.13037959 -0.04728461 -0.056893453
0.062297255 -0.40184298 -0.34035906 0.19712603 0.053129774 -0.12304804 0.05870799 0.054371342
0.2836289 0.09376769 0.008340203 0.065015696 -0.060604837 0.14226162 0.0030769592 0.34190148
0.09548446 0.19652958 0.02973015 0.21931021 0.54138803 0.37680233 0.4087603 0.19514625
-0.04949166 0.05381081 0.14532928 0.21919161 -0.00785528 -0.12295831 0.23642273 0.40113944
0.015476588 0.06673874 -0.00089037954 0.18467271 0.016664902 -0.05241555 -0.04631783 0.11373792
-0.32273132 -0.07989857 0.08482903 -0.06187389 -0.5348877 0.611492 0.058478806 0.52046216
0.12645683 -0.043022346 0.2064897 -0.26463324 -0.26055643 0.2783105 -0.46121162 -0.11328918
0.43406624 0.3516869 0.01218854 -0.17317238 0.030833626 -0.56807554 0.23936297 0.23723863
0.15527892 0.09414065 0.206446 0.011010325 0.21762611 -0.2648306 0.32996288 -0.28548566
0.110462576 0.19329663 -0.021241441 0.19009718 -0.11821211 -0.17391922 0.17913619 0.083151266
-0.0011197112 0.10141079 0.11100118 0.36679974 -0.35797054 0.06751875 -0.34767884 -0.08567013
-0.14980099 0.03418482 -0.04351899 0.08584444 -0.14051668 -0.020937232 0.18344417 0.10728555
0.15658331 0.22483662 -0.25113934 0.15662251 -0.20263891 0.12476079 -0.0090436805 0.35727033
0.27594146 -0.11570962 0.13680491 -0.24714565 -0.2803898 0.0110538835 -0.2181768 -0.021399284
-0.25432983 0.39448828 0.26539034 -0.10542171 0.2633934 -0.2609886 -0.15629767 -0.37842694
-0.13282861 -0.22239304 -0.009496611 0.101790324 0.03136673 -0.019010076 0.007995181 0.1395064
0.24672613 -0.40096363 -0.5468763 -0.048134953 0.01381612 -0.22809581 -0.005871586 0.13014814
0.20393243 0.104264766 0.0113356365 -0.0781169 -0.23773667 0.15929964 0.054755766 0.2367965
-0.018385034 0.28048053 0.08465372 0.47426468 0.47005063 0.057313666 0.44277593 0.2821342
0.18050349 0.02023693 0.21559854 -0.031507127 0.23165478 0.12741889 0.24088858 0.6262078
0.15699914 0.33114368 0.076000735 0.27978894 0.19797544 -0.022692181 0.13619165 0.047883973
-0.37835634 -0.08754944 -0.06809127 0.20923136 -0.4452032 0.5860534 0.24306409 0.3354197
0.19542727 0.18122755 0.3200088 -0.2510029 -0.3779863 0.21126625 -0.19156308 -0.077381745
0.6044205 0.5681424 -0.21543904 -0.24708201 -0.045502346 -0.6222495 0.3223806 0.33859667
0.005496249 0.25681376 0.10704315 -0.004817054 0.07976276 -0.39099774 0.25626224 -0.05629308
0.19234703 -0.0040362156 0.07380105 0.23276696 -0.19747153 -0.2748577 -0.09183209 0.127233
-0.10977683 -0.0928502 0.21917397 0.24617578 -0.17131518 -0.006650392 -0.3289015 0.01578898
0.077123664 -0.0013408713 -0.09175354 0.0051903054 -0.12332701 0.021707408 0.20480236 -0.06009202
-0.035483193 -0.05188218 -0.11559341 0.15808047 0.0068513 0.23780628 -0.24754468 0.24328278

onnx::LSTM_208 f4 [2, 128, 3]
00000000: d7f9 b4be 02ab 3b3e 8b08 07bd c78e b4be
00000010: d656 dabc dd1b 983e 1b1f 373e f7eb 40bf
00000020: 4377 013f 8c88 30be 7b2b 22bf 4bf6 0e3e
00000030: f542 2abe 3407 0abe 6405 063e 4af1 fe3d
00000040: 8873 29be 1ff5 393e ff3b bf3d c27d b13e
00000050: 9894 97be bdf1 6abe 2eee 38be 7471 aa3d
00000060: b343 9bbe 1f36 01be 33da b63e 2093 253d
00000070: ec1d d8bc f88a f93d 5a28 bdbc 54d5 de3e
00000080: 4ce1 a1bc 2548 62be 072c c13e 4701 3abe
00000090: e3ba ed3e 5923 ccbe dbbf 393f 0c19 43be
000000a0: cacd a9bf 5760 8dbe fb60 193e 0436 0a3e
000000b0: 37df 4bbd cdac aebe 5afd d13e 122f 99bd
000000c0: 1d17 4c3e 9136 803c 392c 5dbd fc12 c2be
000000d0: ce57 4cbe a3fa 233e d5a3 bbbe a508 fdbe
000000e0: 64ad 9c3e dc42 453d 9237 7f3f 44e5 0f3f
000000f0: 59b5 943d d518 6ebe 3b57 12be ef87 213e
00000100: dae0 323f 1a34 8d3e d086 06be 9ae2 2b3d
00000110: 7b5c 1c3f 09a7 a8bf 5ee3 05bf b878 ec3e
00000120: eefb 993e b7ba e43d 1e13 153e 7616 5e3f
00000130: 4408 9dbd ef77 2c3f 6719 53be bc2c 40be
00000140: d754 c23d 2320 543e 76c5 91be a8ba dd3b
00000150: 2b42 a5be 104e 1cbe 0e51 613b c41a e7be
00000160: eb34 d5be 52f8 7fbd 268a e9bd 9aad 37be
00000170: e158 323e 2c54 c1be 0271 1c3f c670 ccbe
00000180: 0f2f 823d fa5a de3e b860 72bf e43a 11bf
00000190: e3f0 99be 2e26 25be 1f28 f43c b49a fcbe
000001a0: 6f62 2d3e d9ae 893c 99b8 adbe 9c9a fc3e
000001b0: 3ba7 b0bd f167 2b3e d950 c63e 30a3 273d
000001c0: f00e 0f3f b489 71be 2331 05be 888e 393f
000001d0: de95 e2be 0331 5abd fc05 1fbd 5154 fabd
000001e0: b63f e73e 8148 a33f a60e 1a3e e9f1 dfbc
000001f0: a0fe 71bf f8a7 0bbd dc1f 96be 0ee7 90bf
00000200: 9c36 953d d306 f8bd 2aac 66be 7a36 113f
00000210: f1ea 063f a7cb 1fbe 749f 5e3f c709 ccbe
00000220: cc57 fa3d 5b7e e9bd e167 a43e 5598 593f
00000230: 2623 a5be 9af4 f5bd 361d 33bb beb3 193d
00000240: e1fc eebd 61f0 acbe 7cfe 73bf b435 523c
00000250: 722b 9dbe 157a 29bd 74ce 01bd 46ba 29be
00000260: a8a8 1cbe d377 cbbc b2e7 7e3f f335 9e3e
00000270: 96e5 d63e 2bf4 c0be f58a 073f 2559 353e
00000280: 83a0 5d3f 7eb8 0dbf 0ff7 7abe 6090 9bbd
00000290: ed45 943d 2000 e93c 2101 8cbe 44b9 273e
000002a0: 5f0f 66bf 0ada 96be 3e81 c63e 7230 283e
000002b0: af98 5c3e 0852 253f 7bae a63e f975 f53e
000002c0: a61d 883e bdfe d83e 716a 00be 92e9 003e
000002d0: b5b7 213d bb94 91bf eab3 14be 309f 373f
000002e0: 7e95 113e dc7a a0be d186 b8be 3132 fcbd
000002f0: dc34 113d dab1 3e3d 5451 873f 9e8d f83e
00000300: e8e6 f7be 2e21 3bbd c739 783d 0ce5 073e
00000310: 67e3 c4be 23f3 f4bb 1e1a fcbd bf92 1a3e
00000320: 1b51 6e3d df38 31be 1553 c5bd 8a5c bcbe
00000330: 02ea a83d ec1a ad3e 2ad0 3a3f 5f51 363e
00000340: c531 893e 0692 113d ee42 3f3f cc9d e73e
00000350: 6465 d2be 5aae 12be 48d6 6b3e 4544 87be
00000360: 63f6 c63e 2a7e 853f c385 98be d6f1 48be
00000370: 98f6 4cbf e03a 1bbc 5e1e 013c 3eb0 b03e
00000380: 9a40 66be 72ff 183e 81e1 823b 3e98 e0bd
00000390: 5735 cfbe 323d 63be db6e 1f3e 87f3 173d
000003a0: 4ab9 ec3e 6d59 023f 5d1e c6be 1111 1e3c
000003b0: 5b68 b0be 70ab fd3d f059 93be b4a4 753c
000003c0: f700 1c3e 5421 8f3e 5ee5 4bbf cabf ef3e
000003d0: 7d04 273f 4eaf 0c3e 82fe 8abe c150 98be
000003e0: 8996 6b3e b90f 003e f520 1f3f ed86 62be
000003f0: 0989 0dbd 5ac3 0fbf 4738 703e 27ae 43bf
-0.35346863 0.18326953 -0.03296713 -0.3526518 -0.026652735 0.29708758 0.1788296 -0.75360054
0.50572604 -0.17239588 -0.63347596 0.13961141 -0.16627105 -0.1347931 0.13087994 0.12448366
-0.16547978 0.18159913 0.09337615 0.34666258 -0.29605556 -0.22943778 -0.18059608 0.08322421
-0.30325088 -0.12618302 0.35713348 0.040423512 -0.026381455 0.12184709 -0.02309053 0.4352213
-0.01976075 -0.22097833 0.37728903 -0.1816455 0.46431646 -0.39870718 0.72558373 -0.19052523
-1.3265927 -0.27612564 0.14978401 0.13497168 -0.04977342 -0.34116212 0.41013604 -0.07479681
0.19930692 0.01565102 -0.053997252 -0.3790511 -0.1995537 0.16013579 -0.3664843 -0.49420658
0.30601037 0.048159465 0.9969417 0.56209207 0.07261152 -0.2325166 -0.14291088 0.15774511
0.69874346 0.27578813 -0.13137364 0.04196415 0.61078614 -1.3175975 -0.5230006 0.4618585
0.3007502 0.111684255 0.14558074 0.8675302 -0.07667592 0.67370504 -0.20615159 -0.18767065
0.09488838 0.20715384 -0.28470963 0.006766636 -0.32277045 -0.15264153 0.0034380588 -0.45137608
-0.41641936 -0.062492676 -0.11403303 -0.17937317 0.17416717 -0.3775953 0.61109936 -0.3992979
0.06356632 0.43428785 -0.9467883 -0.56730485 -0.30066594 -0.16127846 0.029804287 -0.4933678
0.1693208 0.016807007 -0.339299 0.49336708 -0.08625647 0.16738869 0.38733557 0.040927112
0.5588217 -0.23587686 -0.13007025 0.7248311 -0.44254965 -0.053269397 -0.038824067 -0.12223113
0.45165795 1.2756501 0.1504465 -0.027337031 -0.9452915 -0.034095734 -0.29321182 -1.1320512
0.072858065 -0.121106766 -0.22526613 0.5672375 0.5270224 -0.15605031 0.86962056 -0.3985121
0.12223777 -0.114010535 0.32110503 0.84998065 -0.3225338 -0.12009545 -0.0027330643 0.03752493
-0.116693266 -0.33777145 -0.9531019 0.012830187 -0.3069721 -0.041376192 -0.03169103 -0.16574964
-0.15298712 -0.02483741 0.9957229 0.30900535 0.41972035 -0.37686285 0.52946407 0.17709787
0.86573046 -0.5535964 -0.24508308 -0.07595897 0.072399 0.028442442 -0.2734461 0.16379267
-0.89867204 -0.29463226 0.3877048 0.1642473 0.21542619 0.64578295 0.32554993 0.47941568
0.2658512 0.4238185 -0.12540604 0.125891 0.039481837 -1.1373514 -0.14521757 0.71727276
0.14217183 -0.31343734 -0.36040357 -0.12314261 0.0354508 0.04655633 1.0571694 0.48545545
-0.48418355 -0.04568594 0.060601976 0.13270968 -0.38454744 -0.007475273 -0.12309669 0.15095042
0.058182817 -0.17306851 -0.09634987 -0.36789352 0.082477584 0.33809602 0.72973883 0.17804478
0.26795784 0.03553965 0.747115 0.45237577 -0.4109298 -0.14324322 0.2303096 -0.26419273
0.38859853 1.0429127 -0.29789552 -0.19623503 -0.8006377 -0.009474486 0.007880775 0.34509462
-0.22485581 0.14941195 0.0039941673 -0.10966538 -0.40470383 -0.22191313 0.15569632 0.03709748
0.46235114 0.509177 -0.3869504 0.009647624 -0.34454617 0.12386215 -0.28779554 0.014992882
0.15234743 0.27955115 -0.7964686 0.4682601 0.65241224 0.13738748 -0.271473 -0.2974911
0.23006643 0.12505998 0.62159663 -0.22121783 -0.034554515 -0.5615746 0.23458968 -0.7643761

onnx::LSTM_209 f4 [2, 128, 32]
00000000: 78ce 69be ad4a b3bd 8149 8f3d d804 063f
00000010: 7144 cb3f 52a5 29bf 3793 433f 9f9e 89bd
00000020: 84e9 b8be e6e0 c33d 7251 d53e 8014 0bbf
00000030: 3179 de3e 45f7 67be 7241 303f 47c5 c13f
00000040: a7fc d6be 9956 d13d a0d6 643f d7a4 59bf
00000050: 3cc4 883f 3dc9 84bd 540c dd3e fd44 9a3f
00000060: ef44 12be 95ca 343f 80c5 5dbf febe 98be
00000070: 6d66 acbe a96e a4bf 6292 36be 9130 673c
00000080: b88b 81be f63a a3be 8418 87be 140f bdbe
00000090: f024 f83e c523 973d 6490 37be 712e 89be
000000a0: b539 48be 448a d63a d020 3bbe d20d 19be
000000b0: 9873 c93e 394f ea3e e6e7 c83f 0bbf 88be
000000c0: b75e 6fbe 9718 443c 9eb6 4b3e c260 e9be
000000d0: 14ba eabe c265 e73e 490d d03d ef6b 5ebc
000000e0: f304 1a3e 4237 9bbe 4f87 143f 109d a8be
000000f0: 71a1 08be 6717 69bf db82 f73c 9ded bcbe
00000100: 1ebb 1dbf 69ea 503f 75db 88bd 87e0 323f
00000110: 36ff 9dbe 4355 32be dc14 333f 2ae3 aebf
00000120: d5a7 943d 57f6 8abe 9808 193f 96e0 c13f
00000130: ff38 8a3e cc28 09be 894e 2dbf 5577 1dbf
00000140: 7c86 13be a4c9 b1be af73 673e e5bd 3f3e
00000150: b36c 8bbe 23bc 02bf 598e 183f d996 8c3f
00000160: 545d 56bf 9cf1 7a3e 8c15 c53e e41e 853f
00000170: 8627 56bf 4832 7e3f 3a94 38bf e480 7dbe
00000180: 9cfa 043f 9aea 4e3d d1c6 5c3f 6fe4 623d
00000190: 6d38 153e 77b4 78be 615a 033e 1d1c 28bf
000001a0: 31d1 9b3f c602 76bf a36f aa3e 5474 ad3d
000001b0: 7c05 eebe 8f34 293f 4c36 19bf 3f25 d2be
000001c0: 4866 c93e fd33 fcbe 7454 783f 6e0d c23e
000001d0: 7625 6f3f 30aa 803e e812 15be 218c 813e
000001e0: b46d 193e 5487 273f 8e26 013c c4d2 443f
000001f0: 6f9b 44bf c592 bfbe 5c4f a73e a0d9 613e
00000200: d70f 2fbe af08 e33e b268 64bd fae0 803e
00000210: 409e b23d 11ca 28bf 78da 2abe 1b6b 27bf
00000220: b9c3 753f 5d04 bcbf cb2d 653f 38cf 253f
00000230: 5850 bcbd 05ec babe 52e1 1cbf a324 11bf
00000240: 3766 353e 4362 92bf 7be0 e43e 66d4 30be
00000250: a0e9 ecbd 23d4 febe 9627 0c3f cd19 0ebe
00000260: 17e1 5cbf 4b8c 423f e76a 233e 84ae 593f
00000270: 595c 42bf 9c94 e63e 1197 17bf a322 83be
00000280: b12b 5ebe 24dc 0c3e b451 383e 3bb0 1bbe
00000290: 61b6 b2be 91fa fd3d 14bf 8b3e a58c 20be
000002a0: 3713 d43d be6b 0ebe ff1e 0f3f 217a 813d
000002b0: d32e 233c 4b59 053e 7889 aabe b0c7 86be
000002c0: cf8c 4d3c bb13 343e 2e9f 8e3e c6a7 95be
000002d0: deef 79be fce8 923e 1504 283e 57b8 7d3e
000002e0: d6da 6c3e e97c 213f 5c46 533e 5a59 a53e
000002f0: e242 85be 159e 74be 1c2a ecbd 07ae 943e
00000300: 2ee5 d23e c07f c53c bd9c 3a3e 48fe 62bf
00000310: 4985 60bd 89fe 0bbd db5c 383f 0c61 69bf
00000320: e270 89bd cd61 8abf 8478 bebd bb5e dabd
00000330: 3dd4 9a3d a256 583d 7281 84bd 34ae 7e3e
00000340: 8642 94bf 2647 a4bd 9b99 69bd 0f3b 163f
00000350: eb2a 75bf 0b06 89be 1703 95bc 61f9 15be
00000360: ad85 d2bc 4e5c 1bbf 4166 75be 72c4 ef3e
00000370: 9513 0b3f 9bfc 54bf 9d4d 093f d1d8 013f
00000380: 1011 053e 7cb7 213c dddb d2bd 4e8f 393f
00000390: 0e0c 42bd 317c 303d c43b a53d 55ca 103e
000003a0: fa74 0a3d 34f3 0c3f db30 45bd f993 81be
000003b0: e9eb babd 5f03 213e 3495 f2bd 38d3 bf3e
000003c0: 4575 5abe cbfc 823e e8cf 41be 8485 7dbc
000003d0: 4550 363f 5fe9 d6bf ad50 09bd b607 893f
000003e0: 01c5 823e 0b2d f2bc 4897 ae3c d2b0 7a3e
000003f0: a2fa 853e bfd6 b1be 20c5 e6bc 9dbb ee3d
-0.22832668 -0.08754478 0.06996442 0.5235114 1.5880262 -0.66267884 0.7639651 -0.06719708
-0.36115658 0.0956438 0.416637 -0.54328156 0.43451837 -0.2265292 0.6884986 1.5138329
-0.41989633 0.10221595 0.8938999 -0.8501715 1.0684886 -0.06483696 0.43173468 1.2052304
-0.14284109 0.70621616 -0.86629486 -0.29833215 -0.33671895 -1.2846271 -0.17829278 0.0141107
-0.2530191 -0.3188092 -0.2638589 -0.36925566 0.4846568 0.07379869 -0.17926174 -0.26793244
-0.19553263 0.0016368111 -0.18274236 -0.14946678 0.39346004 0.45763567 1.569577 -0.26708254
-0.23375975 0.011968753 0.19893882 -0.45581633 -0.4584509 0.45194823 0.10158784 -0.013575538
0.1504095 -0.30315596 0.58018965 -0.3293233 -0.13342835 -0.91051334 0.030213764 -0.36900035
-0.61613643 0.8160768 -0.06682483 0.6987385 -0.30858773 -0.17415337 0.69953704 -1.3663075
0.07258574 -0.27141067 0.5977874 1.5146663 0.2699661 -0.13394469 -0.6769796 -0.6151021
-0.1440677 -0.34724152 0.22602724 0.18724783 -0.27231368 -0.51068324 0.59592205 1.0983535
-0.8373616 0.24506229 0.38493 1.0400052 -0.8365406 0.99295473 -0.72101176 -0.24756199
0.519449 0.050516702 0.8624087 0.055393633 0.14572306 -0.24287592 0.12827446 -0.656679
1.2173215 -0.9609798 0.33288297 0.084694535 -0.4648856 0.66095823 -0.59848475 -0.41044042
0.39335847 -0.49258414 0.97003865 0.3790087 0.93416536 0.25129843 -0.14557993 0.25302222
0.14983255 0.6544087 0.007882727 0.768841 -0.7679967 -0.37416664 0.32677734 0.22055674
-0.17095886 0.44342563 -0.055763908 0.25171643 0.0872159 -0.6593333 -0.16684902 -0.65397805
0.96001774 -1.4688832 0.89523 0.64769316 -0.09195012 -0.36508194 -0.6128131 -0.5669653
0.17714773 -1.1436237 0.44702515 -0.17268524 -0.11567998 -0.49771222 0.54747903 -0.1387703
-0.8628096 0.7599532 0.15958749 0.85031915 -0.7592216 0.45035255 -0.59214884 -0.25612363
-0.21696354 0.13755852 0.17999917 -0.15203945 -0.3490477 0.124013074 0.2729422 -0.15678652
0.103552274 -0.13908288 0.5590667 0.06322122 0.009959894 0.13022344 -0.33308005 -0.26324224
0.012545778 0.17585652 0.2785582 -0.29229563 -0.24407908 0.28693378 0.16407807 0.24777351
0.23130354 0.6308122 0.20632309 0.32294732 -0.2602759 -0.23888429 -0.11531469 0.29039022
0.41190475 0.024108768 0.18223853 -0.8866925 -0.05481461 -0.03417829 0.72016686 -0.91163707
-0.06710984 -1.0811096 -0.0930033 -0.106626 0.075600125 0.052816994 -0.06470002 0.2487114
-1.1582801 -0.08021383 -0.057031255 0.58683866 -0.9576861 -0.26762423 -0.01818995 -0.14645912
-0.025698507 -0.6068772 -0.23964788 0.46829563 0.54326755 -0.83197945 0.53634053 0.5072146
0.1299479 0.009870406 -0.10295842 0.7248429 -0.047374777 0.04308719 0.0806804 0.14139684
0.033802964 0.550586 -0.048142295 -0.25308207 -0.091270275 0.15723942 -0.118448645 0.37465835
-0.21333797 0.2558349 -0.18926966 -0.015473727 0.7121623 -1.6789969 -0.033524204 1.0705478
0.25540927 -0.029562494 0.02131237 0.24481514 0.2616778 -0.3473415 -0.028170168 0.11656878
